…
2026-03-18 05:58:59,613 - INFO - Pitch mean/std: 200.2983, 74.1053
2026-03-18 05:58:59,613 - INFO - Periodicity range min/max: 0.1079, 0.7977
2026-03-18 05:58:59,614 - INFO - Number of phones: 89
2026-03-18 05:58:59,772 - INFO - Loading pretrained model from ../models/model.pt
2026-03-18 05:58:59,795 - INFO - Loaded 112 compatible weight tensors
2026-03-18 05:58:59,795 - INFO - Skipped 1 incompatible keys:
2026-03-18 05:58:59,795 - INFO -   - embed_tokens.weight (shape mismatch)
2026-03-18 05:58:59,795 - INFO - Fine-tuning from pretrained model
2026-03-18 05:58:59,795 - INFO - ProsodyAwareModel(
  (speaker_embedding): Embedding(10, 512)
  (emotion_embedding): Embedding(5, 64)
  (embed_tokens): Embedding(89, 496, padding_idx=0)
  (embed_tones): Embedding(7, 16, padding_idx=0)
  (dropout): Dropout(p=0.2, inplace=False)
  (embed_pitch): Conv1d(2, 512, kernel_size=(1,), stride=(1,))
  (encoder): ModuleList(
    (0): SepConvLayer(
      (layer_norm): LayerNorm1d((512,), eps=1e-05, elementwise_affine=True)
      (dropout): Dropout(p=0.2, inplace=False)
      (activation_fn): ReLU()
      (conv1): ConvSeparable(
        (depthwise_conv): Conv1d(512, 512, kernel_size=(5,), stride=(1,), padding=same, groups=512, bias=False)
        (pointwise_conv): Conv1d(512, 512, kernel_size=(1,), stride=(1,))
      )
      (conv2): ConvSeparable(
        (depthwise_conv): Conv1d(512, 512, kernel_size=(5,), stride=(1,), padding=same, groups=512, bias=False)
        (pointwise_conv): Conv1d(512, 512, kernel_size=(1,), stride=(1,))
      )
    )
    (1): SepConvLayer(
      (layer_norm): LayerNorm1d((512,), eps=1e-05, elementwise_affine=True)
      (dropout): Dropout(p=0.2, inplace=False)
      (activation_fn): ReLU()
      (conv1): ConvSeparable(
        (depthwise_conv): Conv1d(512, 512, kernel_size=(25,), stride=(1,), padding=same, groups=512, bias=False)
        (pointwise_conv): Conv1d(512, 512, kernel_size=(1,), stride=(1,))
      )
      (conv2): ConvSeparable(
        (depthwise_conv): Conv1d(512, 512, kernel_size=(25,), stride=(1,), padding=same, groups=512, bias=False)
        (pointwise_conv): Conv1d(512, 512, kernel_size=(1,), stride=(1,))
      )
    )
    (2): SepConvLayer(
      (layer_norm): LayerNorm1d((512,), eps=1e-05, elementwise_affine=True)
      (dropout): Dropout(p=0.2, inplace=False)
      (activation_fn): ReLU()
      (conv1): ConvSeparable(
        (depthwise_conv): Conv1d(512, 512, kernel_size=(13,), stride=(1,), padding=same, groups=512, bias=False)
        (pointwise_conv): Conv1d(512, 512, kernel_size=(1,), stride=(1,))
      )
      (conv2): ConvSeparable(
        (depthwise_conv): Conv1d(512, 512, kernel_size=(13,), stride=(1,), padding=same, groups=512, bias=False)
        (pointwise_conv): Conv1d(512, 512, kernel_size=(1,), stride=(1,))
      )
    )
    (3): SepConvLayer(
      (layer_norm): LayerNorm1d((512,), eps=1e-05, elementwise_affine=True)
      (dropout): Dropout(p=0.2, inplace=False)
      (activation_fn): ReLU()
      (conv1): ConvSeparable(
        (depthwise_conv): Conv1d(512, 512, kernel_size=(9,), stride=(1,), padding=same, groups=512, bias=False)
        (pointwise_conv): Conv1d(512, 512, kernel_size=(1,), stride=(1,))
      )
      (conv2): ConvSeparable(
        (depthwise_conv): Conv1d(512, 512, kernel_size=(9,), stride=(1,), padding=same, groups=512, bias=False)
        (pointwise_conv): Conv1d(512, 512, kernel_size=(1,), stride=(1,))
      )
    )
  )
  (emotion_projection): Linear(in_features=576, out_features=512, bias=True)
  (decoder): ModuleList(
    (0): SepConvLayer(
      (layer_norm): LayerNorm1d((512,), eps=1e-05, elementwise_affine=True)
      (dropout): Dropout(p=0.2, inplace=False)
      (activation_fn): ReLU()
      (conv1): ConvSeparable(
        (depthwise_conv): Conv1d(512, 512, kernel_size=(17,), stride=(1,), padding=same, groups=512, bias=False)
        (pointwise_conv): Conv1d(512, 512, kernel_size=(1,), stride=(1,))
      )
      (conv2): ConvSeparable(
        (depthwise_conv): Conv1d(512, 512, kernel_size=(17,), stride=(1,), padding=same, groups=512, bias=False)
        (pointwise_conv): Conv1d(512, 512, kernel_size=(1,), stride=(1,))
      )
    )
    (1): SepConvLayer(
      (layer_norm): LayerNorm1d((512,), eps=1e-05, elementwise_affine=True)
      (dropout): Dropout(p=0.2, inplace=False)
      (activation_fn): ReLU()
      (conv1): ConvSeparable(
        (depthwise_conv): Conv1d(512, 512, kernel_size=(21,), stride=(1,), padding=same, groups=512, bias=False)
        (pointwise_conv): Conv1d(512, 512, kernel_size=(1,), stride=(1,))
      )
      (conv2): ConvSeparable(
        (depthwise_conv): Conv1d(512, 512, kernel_size=(21,), stride=(1,), padding=same, groups=512, bias=False)
        (pointwise_conv): Conv1d(512, 512, kernel_size=(1,), stride=(1,))
      )
    )
    (2): SepConvLayer(
      (layer_norm): LayerNorm1d((512,), eps=1e-05, elementwise_affine=True)
      (dropout): Dropout(p=0.2, inplace=False)
      (activation_fn): ReLU()
      (conv1): ConvSeparable(
        (depthwise_conv): Conv1d(512, 512, kernel_size=(9,), stride=(1,), padding=same, groups=512, bias=False)
        (pointwise_conv): Conv1d(512, 512, kernel_size=(1,), stride=(1,))
      )
      (conv2): ConvSeparable(
        (depthwise_conv): Conv1d(512, 512, kernel_size=(9,), stride=(1,), padding=same, groups=512, bias=False)
        (pointwise_conv): Conv1d(512, 512, kernel_size=(1,), stride=(1,))
      )
    )
    (3): SepConvLayer(
      (layer_norm): LayerNorm1d((512,), eps=1e-05, elementwise_affine=True)
      (dropout): Dropout(p=0.2, inplace=False)
      (activation_fn): ReLU()
      (conv1): ConvSeparable(
        (depthwise_conv): Conv1d(512, 512, kernel_size=(3,), stride=(1,), padding=same, groups=512, bias=False)
        (pointwise_conv): Conv1d(512, 512, kernel_size=(1,), stride=(1,))
      )
      (conv2): ConvSeparable(
        (depthwise_conv): Conv1d(512, 512, kernel_size=(3,), stride=(1,), padding=same, groups=512, bias=False)
        (pointwise_conv): Conv1d(512, 512, kernel_size=(1,), stride=(1,))
      )
    )
  )
  (duration_predictor): Sequential(
    (0): ConvSeparable(
      (depthwise_conv): Conv1d(512, 512, kernel_size=(3,), stride=(1,), padding=same, groups=512, bias=False)
      (pointwise_conv): Conv1d(512, 512, kernel_size=(1,), stride=(1,))
    )
    (1): ReLU()
    (2): LayerNorm1d((512,), eps=1e-05, elementwise_affine=True)
    (3): Dropout(p=0.25, inplace=False)
    (4): Conv1d(512, 1, kernel_size=(1,), stride=(1,))
  )
  (pitch_predictor): Sequential(
    (0): ConvSeparable(
      (depthwise_conv): Conv1d(512, 512, kernel_size=(5,), stride=(1,), padding=same, groups=512, bias=False)
      (pointwise_conv): Conv1d(512, 512, kernel_size=(1,), stride=(1,))
    )
    (1): ReLU()
    (2): LayerNorm1d((512,), eps=1e-05, elementwise_affine=True)
    (3): Dropout(p=0.25, inplace=False)
    (4): ConvSeparable(
      (depthwise_conv): Conv1d(512, 512, kernel_size=(5,), stride=(1,), padding=same, groups=512, bias=False)
      (pointwise_conv): Conv1d(512, 512, kernel_size=(1,), stride=(1,))
    )
    (5): ReLU()
    (6): LayerNorm1d((512,), eps=1e-05, elementwise_affine=True)
    (7): Dropout(p=0.25, inplace=False)
    (8): ConvSeparable(
      (depthwise_conv): Conv1d(512, 512, kernel_size=(5,), stride=(1,), padding=same, groups=512, bias=False)
      (pointwise_conv): Conv1d(512, 512, kernel_size=(1,), stride=(1,))
    )
    (9): ReLU()
    (10): LayerNorm1d((512,), eps=1e-05, elementwise_affine=True)
    (11): Dropout(p=0.25, inplace=False)
    (12): ConvSeparable(
      (depthwise_conv): Conv1d(512, 512, kernel_size=(5,), stride=(1,), padding=same, groups=512, bias=False)
      (pointwise_conv): Conv1d(512, 512, kernel_size=(1,), stride=(1,))
    )
    (13): ReLU()
    (14): LayerNorm1d((512,), eps=1e-05, elementwise_affine=True)
    (15): Dropout(p=0.25, inplace=False)
    (16): ConvSeparable(
      (depthwise_conv): Conv1d(512, 512, kernel_size=(5,), stride=(1,), padding=same, groups=512, bias=False)
      (pointwise_conv): Conv1d(512, 512, kernel_size=(1,), stride=(1,))
    )
    (17): ReLU()
    (18): LayerNorm1d((512,), eps=1e-05, elementwise_affine=True)
    (19): Dropout(p=0.25, inplace=False)
    (20): ConvSeparable(
      (depthwise_conv): Conv1d(512, 512, kernel_size=(5,), stride=(1,), padding=same, groups=512, bias=False)
      (pointwise_conv): Conv1d(512, 512, kernel_size=(1,), stride=(1,))
    )
    (21): ReLU()
    (22): LayerNorm1d((512,), eps=1e-05, elementwise_affine=True)
    (23): Dropout(p=0.25, inplace=False)
    (24): Conv1d(512, 2, kernel_size=(1,), stride=(1,))
  )
  (layer_norm): LayerNorm1d((512,), eps=1e-05, elementwise_affine=True)
  (layer_norm2): LayerNorm1d((512,), eps=1e-05, elementwise_affine=True)
  (mel_out): Conv1d(512, 80, kernel_size=(1,), stride=(1,))
)
2026-03-18 05:58:59,796 - INFO - Total trainable parameters: 6,569,075
2026-03-18 05:59:00,172 - INFO - Epoch: 1/200
2026-03-18 06:04:30,744 - INFO - ✓ Best model saved (loss: 1.583428)
2026-03-18 06:04:30,744 - INFO - {'epoch': 1, 'train_mel_loss': 1.6823075742493545, 'train_dur_loss': 1.1626598068076222, 'train_pitch_loss': 0.38857478926474265, 'train_pe
…
