2026-03-18 04:15:07,399 - INFO - Number of speakers: 1
2026-03-18 04:15:10,162 - INFO - Training files: 10467, validation files: 2617
2026-03-18 04:15:12,588 - INFO - Pitch mean/std: 206.7956, 50.7728
2026-03-18 04:15:12,588 - INFO - Periodicity range min/max: 0.1079, 0.7969
2026-03-18 04:15:12,599 - INFO - Number of phones: 91
2026-03-18 04:15:13,041 - INFO - Model(
  (embed_tokens): Embedding(91, 496, padding_idx=0)
  (embed_tones): Embedding(7, 16, padding_idx=0)
  (dropout): Dropout(p=0.2, inplace=False)
  (embed_pitch): Conv1d(2, 512, kernel_size=(1,), stride=(1,))
  (encoder): ModuleList(
    (0): SepConvLayer(
      (layer_norm): LayerNorm1d((512,), eps=1e-05, elementwise_affine=True)
      (dropout): Dropout(p=0.2, inplace=False)
      (activation_fn): ReLU(inplace=True)
      (conv1): ConvSeparable(
        (depthwise_conv): Conv1d(512, 512, kernel_size=(5,), stride=(1,), padding=same, groups=512, bias=False)
        (pointwise_conv): Conv1d(512, 512, kernel_size=(1,), stride=(1,))
      )
      (conv2): ConvSeparable(
        (depthwise_conv): Conv1d(512, 512, kernel_size=(5,), stride=(1,), padding=same, groups=512, bias=False)
        (pointwise_conv): Conv1d(512, 512, kernel_size=(1,), stride=(1,))
      )
    )
    (1): SepConvLayer(
      (layer_norm): LayerNorm1d((512,), eps=1e-05, elementwise_affine=True)
      (dropout): Dropout(p=0.2, inplace=False)
      (activation_fn): ReLU(inplace=True)
      (conv1): ConvSeparable(
        (depthwise_conv): Conv1d(512, 512, kernel_size=(25,), stride=(1,), padding=same, groups=512, bias=False)
        (pointwise_conv): Conv1d(512, 512, kernel_size=(1,), stride=(1,))
      )
      (conv2): ConvSeparable(
        (depthwise_conv): Conv1d(512, 512, kernel_size=(25,), stride=(1,), padding=same, groups=512, bias=False)
        (pointwise_conv): Conv1d(512, 512, kernel_size=(1,), stride=(1,))
      )
    )
    (2): SepConvLayer(
      (layer_norm): LayerNorm1d((512,), eps=1e-05, elementwise_affine=True)
      (dropout): Dropout(p=0.2, inplace=False)
      (activation_fn): ReLU(inplace=True)
      (conv1): ConvSeparable(
        (depthwise_conv): Conv1d(512, 512, kernel_size=(13,), stride=(1,), padding=same, groups=512, bias=False)
        (pointwise_conv): Conv1d(512, 512, kernel_size=(1,), stride=(1,))
      )
      (conv2): ConvSeparable(
        (depthwise_conv): Conv1d(512, 512, kernel_size=(13,), stride=(1,), padding=same, groups=512, bias=False)
        (pointwise_conv): Conv1d(512, 512, kernel_size=(1,), stride=(1,))
      )
    )
    (3): SepConvLayer(
      (layer_norm): LayerNorm1d((512,), eps=1e-05, elementwise_affine=True)
      (dropout): Dropout(p=0.2, inplace=False)
      (activation_fn): ReLU(inplace=True)
      (conv1): ConvSeparable(
        (depthwise_conv): Conv1d(512, 512, kernel_size=(9,), stride=(1,), padding=same, groups=512, bias=False)
        (pointwise_conv): Conv1d(512, 512, kernel_size=(1,), stride=(1,))
      )
      (conv2): ConvSeparable(
        (depthwise_conv): Conv1d(512, 512, kernel_size=(9,), stride=(1,), padding=same, groups=512, bias=False)
        (pointwise_conv): Conv1d(512, 512, kernel_size=(1,), stride=(1,))
      )
    )
  )
  (decoder): ModuleList(
    (0): SepConvLayer(
      (layer_norm): LayerNorm1d((512,), eps=1e-05, elementwise_affine=True)
      (dropout): Dropout(p=0.2, inplace=False)
      (activation_fn): ReLU(inplace=True)
      (conv1): ConvSeparable(
        (depthwise_conv): Conv1d(512, 512, kernel_size=(17,), stride=(1,), padding=same, groups=512, bias=False)
        (pointwise_conv): Conv1d(512, 512, kernel_size=(1,), stride=(1,))
      )
      (conv2): ConvSeparable(
        (depthwise_conv): Conv1d(512, 512, kernel_size=(17,), stride=(1,), padding=same, groups=512, bias=False)
        (pointwise_conv): Conv1d(512, 512, kernel_size=(1,), stride=(1,))
      )
    )
    (1): SepConvLayer(
      (layer_norm): LayerNorm1d((512,), eps=1e-05, elementwise_affine=True)
      (dropout): Dropout(p=0.2, inplace=False)
      (activation_fn): ReLU(inplace=True)
      (conv1): ConvSeparable(
        (depthwise_conv): Conv1d(512, 512, kernel_size=(21,), stride=(1,), padding=same, groups=512, bias=False)
        (pointwise_conv): Conv1d(512, 512, kernel_size=(1,), stride=(1,))
      )
      (conv2): ConvSeparable(
        (depthwise_conv): Conv1d(512, 512, kernel_size=(21,), stride=(1,), padding=same, groups=512, bias=False)
        (pointwise_conv): Conv1d(512, 512, kernel_size=(1,), stride=(1,))
      )
    )
    (2): SepConvLayer(
      (layer_norm): LayerNorm1d((512,), eps=1e-05, elementwise_affine=True)
      (dropout): Dropout(p=0.2, inplace=False)
      (activation_fn): ReLU(inplace=True)
      (conv1): ConvSeparable(
        (depthwise_conv): Conv1d(512, 512, kernel_size=(9,), stride=(1,), padding=same, groups=512, bias=False)
        (pointwise_conv): Conv1d(512, 512, kernel_size=(1,), stride=(1,))
      )
      (conv2): ConvSeparable(
        (depthwise_conv): Conv1d(512, 512, kernel_size=(9,), stride=(1,), padding=same, groups=512, bias=False)
        (pointwise_conv): Conv1d(512, 512, kernel_size=(1,), stride=(1,))
      )
    )
    (3): SepConvLayer(
      (layer_norm): LayerNorm1d((512,), eps=1e-05, elementwise_affine=True)
      (dropout): Dropout(p=0.2, inplace=False)
      (activation_fn): ReLU(inplace=True)
      (conv1): ConvSeparable(
        (depthwise_conv): Conv1d(512, 512, kernel_size=(3,), stride=(1,), padding=same, groups=512, bias=False)
        (pointwise_conv): Conv1d(512, 512, kernel_size=(1,), stride=(1,))
      )
      (conv2): ConvSeparable(
        (depthwise_conv): Conv1d(512, 512, kernel_size=(3,), stride=(1,), padding=same, groups=512, bias=False)
        (pointwise_conv): Conv1d(512, 512, kernel_size=(1,), stride=(1,))
      )
    )
  )
  (duration_predictor): Sequential(
    (0): ConvSeparable(
      (depthwise_conv): Conv1d(512, 512, kernel_size=(3,), stride=(1,), padding=same, groups=512, bias=False)
      (pointwise_conv): Conv1d(512, 512, kernel_size=(1,), stride=(1,))
    )
    (1): ReLU(inplace=True)
    (2): LayerNorm1d((512,), eps=1e-05, elementwise_affine=True)
    (3): Dropout(p=0.25, inplace=False)
    (4): Conv1d(512, 1, kernel_size=(1,), stride=(1,))
  )
  (pitch_predictor): Sequential(
    (0): ConvSeparable(
      (depthwise_conv): Conv1d(512, 512, kernel_size=(5,), stride=(1,), padding=same, groups=512, bias=False)
      (pointwise_conv): Conv1d(512, 512, kernel_size=(1,), stride=(1,))
    )
    (1): ReLU(inplace=True)
    (2): LayerNorm1d((512,), eps=1e-05, elementwise_affine=True)
    (3): Dropout(p=0.25, inplace=False)
    (4): ConvSeparable(
      (depthwise_conv): Conv1d(512, 512, kernel_size=(5,), stride=(1,), padding=same, groups=512, bias=False)
      (pointwise_conv): Conv1d(512, 512, kernel_size=(1,), stride=(1,))
    )
    (5): ReLU(inplace=True)
    (6): LayerNorm1d((512,), eps=1e-05, elementwise_affine=True)
    (7): Dropout(p=0.25, inplace=False)
    (8): ConvSeparable(
      (depthwise_conv): Conv1d(512, 512, kernel_size=(5,), stride=(1,), padding=same, groups=512, bias=False)
      (pointwise_conv): Conv1d(512, 512, kernel_size=(1,), stride=(1,))
    )
    (9): ReLU(inplace=True)
    (10): LayerNorm1d((512,), eps=1e-05, elementwise_affine=True)
    (11): Dropout(p=0.25, inplace=False)
    (12): ConvSeparable(
      (depthwise_conv): Conv1d(512, 512, kernel_size=(5,), stride=(1,), padding=same, groups=512, bias=False)
      (pointwise_conv): Conv1d(512, 512, kernel_size=(1,), stride=(1,))
    )
    (13): ReLU(inplace=True)
    (14): LayerNorm1d((512,), eps=1e-05, elementwise_affine=True)
    (15): Dropout(p=0.25, inplace=False)
    (16): ConvSeparable(
      (depthwise_conv): Conv1d(512, 512, kernel_size=(5,), stride=(1,), padding=same, groups=512, bias=False)
      (pointwise_conv): Conv1d(512, 512, kernel_size=(1,), stride=(1,))
    )
    (17): ReLU(inplace=True)
    (18): LayerNorm1d((512,), eps=1e-05, elementwise_affine=True)
    (19): Dropout(p=0.25, inplace=False)
    (20): ConvSeparable(
      (depthwise_conv): Conv1d(512, 512, kernel_size=(5,), stride=(1,), padding=same, groups=512, bias=False)
      (pointwise_conv): Conv1d(512, 512, kernel_size=(1,), stride=(1,))
    )
    (21): ReLU(inplace=True)
    (22): LayerNorm1d((512,), eps=1e-05, elementwise_affine=True)
    (23): Dropout(p=0.25, inplace=False)
    (24): Conv1d(512, 2, kernel_size=(1,), stride=(1,))
  )
  (layer_norm): LayerNorm1d((512,), eps=1e-05, elementwise_affine=True)
  (layer_norm2): LayerNorm1d((512,), eps=1e-05, elementwise_affine=True)
  (mel_out): Conv1d(512, 80, kernel_size=(1,), stride=(1,))
)
2026-03-18 04:15:13,043 - INFO - Total trainable parameters: 6269203
2026-03-18 04:15:16,663 - INFO - Epoch: 1/200
2026-03-18 04:19:12,246 - INFO - New best val_total_loss
2026-03-18 04:19:12,273 - INFO - {'epoch': 1, 'train_mel_loss': 3.116128568185985, 'train_dur_loss': 1.1935450637837108, 'train_pitch_loss': 0.3719309188124443, 'train_periodicity_loss': 0.1845299426394689, 'val_mel_loss': 1.4894986246030295, 'val_dur_loss': 0.16255126541062626, 'val_pitch_loss': 0.31438600854150295, 'val_periodicity_loss': 0.04448001764580909, 'val_total_loss': 2.0109159162009678, 'elapsed': 3.9268211245536806, 'elapsed_total': 4.082665475209554, 'lr': 0.0002}
…
